anomaly_detector_model.tflite (tflite, 151832 bytes, 8 tensors)

arith.constant7 f4 [32]
00000000: 71d0 913d a7ae 943d 6281 28bd 17ee a13d
00000010: 2acd c53d 312e ac3c 1153 6b3d 1012 413d
00000020: 55de 933d f615 393d 85f3 34bd f4d3 c73d
00000030: cbaf 5e3d 48b1 2b3d dcc8 c93d ad20 9a3d
00000040: f524 d2bc 305b 8d3d 0103 33bd d36d c93d
00000050: 07a7 1b3a a223 653b 1ba4 a93c 0477 8c3d
00000060: e8bd 70b9 28d4 cf3c 717c a93d e84d 443d
00000070: a9c5 753d 6eaa 5c3d f2a1 1a3d 0f4b 2b3d
0.07119835 0.07259875 -0.041139014 0.0790674 0.096582726 0.02101812 0.057452265 0.047136366
0.07220141 0.04518696 -0.04417755 0.09757224 0.054366868 0.041917115 0.09852764 0.07525764
-0.025652388 0.06902158 -0.043704037 0.098354004 0.000593767 0.0034963866 0.020708134 0.06858638
-0.00022958929 0.025369719 0.082756884 0.04792586 0.060002957 0.053873472 0.0377521 0.04181963

arith.constant9 f4 [200]
00000000: 9089 363d f3d5 fa3d 7c62 98bc d11f cf3c
00000010: 789e 2bbd 2c97 5b39 4f4c 52bc fcb1 143d
00000020: 46e0 ccbc e6b7 c839 6490 2b3d 860f 523a
00000030: 5026 4cbc 8e03 023d 6070 0a3d 1030 19bb
00000040: b7bf 66bd fd3e 563c 28ff 0cbc d67c 3e3b
00000050: abaa ed3c 1671 24bc 8d5f 2ebd 3128 883d
00000060: a5e6 6c3c d996 523d 818a f5bc 13dc 71bc
00000070: 6eb1 31bc befd 33bd 4e48 6cbb a2ed bb3c
00000080: 2b9e 8abd 0806 61ba b1f9 2c3d 7f16 0abb
00000090: b84f 25bd 766a 833d dab8 2f3d b85b 413d
000000a0: 9211 91bd aae1 113d f8fe 5a3c 9df3 91bc
000000b0: 08cf 183c 2e8a e3bc 0642 c3bc d3c1 88bc
000000c0: 14c1 9b3c 051f 84bb bc3e 813f e705 7c3f
000000d0: deaf 743f 4db4 813f 264d 743f fd0b 843f
000000e0: defd 7c3f d826 7d3f 258e 803f 6698 733f
000000f0: 5ed3 893f bdb7 7e3f 0468 7e3f b3c2 783f
00000100: 51d6 783f 35e3 823f 1664 743f 542b 7f3f
00000110: 9a6d 863f 144a 8c3f 8528 813f 6afb 843f
00000120: 7e7a 823f 0014 903f 1101 753f 3bdd 7c3f
00000130: d1a9 733f 3feb 7a3f af13 773f d5e8 853f
00000140: fcab 7a3f 3417 873f ffab 8d3f 7a87 7b3f
00000150: 645c 763f d0eb 803f fb89 7a3f 5f15 7a3f
00000160: 7bac 7c3f 18e2 873f 5534 723f bddc 783f
00000170: d76a 793f 1c2d 903f 452b 853f 1d80 873f
00000180: 3541 7c3f c345 813f cf87 833f 5ff9 7d3f
00000190: 8708 ba3b 38b0 85bc 87f5 393b d69d 863c
000001a0: 0953 7dbc 1088 9b3b b48e 0bbb b6ce 1a3b
000001b0: 6e20 953c be04 a0bc 8930 3d3d 7226 e73c
000001c0: b230 26bc d560 9eba d5a4 743b dc22 b8bc
000001d0: c53c 3fbc e0b4 91bb aacb aa3c 6b0e 22bc
000001e0: 206a 873c cd32 943c d867 2d3b 4113 403c
000001f0: e24d 82bc 1371 02bc e19e 9e3b acc8 b1bc
00000200: 7e93 553c 2c68 0d3d ea98 c4ba 2c74 5cbd
00000210: 6d15 e23b 0527 5c3c 309f d13b 7d00 7b3d
00000220: 2fb5 8fbb f83d ab3b 0d72 9abb 34f8 643d
00000230: 7aa1 593c af2b c9bc 4acf fd3c 7d3d f43b
00000240: b70a 553c 7e97 ffbc b9a9 f43b 172f 4ebc
00000250: 494c 24bd 0521 03bd 0c68 bf3d c63d 0f3e
00000260: 4311 533b cb8d 8dbd 6170 60bd bbca 663d
00000270: 578c 61b9 6430 553d 1652 3fbc 2118 c93c
00000280: f795 023b a89b 1c3c 0bc5 d53a c7e3 163d
00000290: e25b 873d 64b1 c83c e431 19bd 9b3d e33c
000002a0: 6f4e 513d 8d1e 9e3c 0bf9 863d 7bde 4d3c
000002b0: 99a2 e83b 4421 543d 27d9 4f3d 6fea ae3d
000002c0: aceb 15bd b166 c7bc 3238 1dbc b9f6 6d3d
000002d0: 4741 123d 23ab aa3a 6f54 873c faf3 66bc
000002e0: 1b0b 803d 9a8d 233b 4b6c 5e3b 4b09 a23d
000002f0: b640 9c3d 3f4e 83bc 8b84 6dbd c904 5b3d
00000300: 8818 733b b24a 0e3d 9f13 cabb 77d0 843d
00000310: fee7 1dbd a742 ab3c d900 833d d6ca b3bb
0.044564784 0.12247839 -0.018601649 0.025283726 -0.041899174 0.00020941783 -0.012835576 0.03630255
-0.025009286 0.00038283988 0.04188575 0.00080131774 -0.012460306 0.03174167 0.033798575 -0.0023374595
-0.056335177 0.013076541 -0.008605756 0.0029066107 0.029012045 -0.010036727 -0.042571593 0.06648291
0.014459287 0.05141339 -0.02997327 -0.014761942 -0.010845525 -0.04394316 -0.003605384 0.02294046
-0.067684494 -0.00085839676 0.04223031 -0.0021070538 -0.04035923 0.0641679 0.042900898 0.04720661
-0.070834294 0.0356156 0.013366453 -0.01781636 0.009326704 -0.02777585 -0.023835193 -0.016693985
0.019012965 -0.004032018 1.009727 0.98446506 0.9558085 1.0133148 0.9543022 1.0316159
0.9882487 0.98887396 1.0043379 0.95154417 1.0767629 0.9949911 0.99377465 0.9717209
0.9720202 1.0225588 0.9546522 0.9967549 1.0502198 1.0960107 1.009049 1.0389225
1.0193632 1.1256104 0.9570475 0.9877507 0.95180994 0.9801521 0.9651441 1.046168
0.9791868 1.0553956 1.1068114 0.98253596 0.96234727 1.0071964 0.9786679 0.9768886
0.98700684 1.0615873 0.946111 0.9721182 0.9742865 1.1263766 1.040383 1.0585972
0.98537 1.0099415 1.027582 0.99208635 0.005677286 -0.01631938 0.0028375105 0.016432684
-0.015461692 0.0047464445 -0.0021294774 0.0023621744 0.01820394 -0.019533511 0.046188865 0.028216574
-0.010143446 -0.0012083302 0.0037329693 -0.02247756 -0.011672203 -0.004446611 0.020849068 -0.009891133
0.016530097 0.01809063 0.00264596 0.0117233405 -0.015906278 -0.007961529 0.004840717 -0.021702133
0.013035653 0.034523174 -0.0014999185 -0.053821728 0.006899527 0.013437037 0.0063971505 0.061279763
-0.0043856124 0.005225893 -0.004713303 0.055900767 0.013283128 -0.024556963 0.030982632 0.007453619
0.013003043 -0.031200167 0.0074665216 -0.012584469 -0.040111814 -0.03201391 0.09346017 0.13988408
0.0032206334 -0.069118105 -0.054794673 0.056345683 -0.00021509953 0.052048102 -0.011677286 0.024547638
0.0019925812 0.009558596 0.0016309334 0.03683832 0.06609322 0.024498649 -0.037401095 0.027739337
0.05110019 0.019301677 0.0659047 0.0125652505 0.0070994613 0.051789537 0.050744202 0.085408084
-0.036601707 -0.02434096 -0.009595918 0.05809662 0.035706785 0.0013020973 0.016519753 -0.0140962545
0.06252118 0.0024956227 0.003393906 0.07911929 0.0762953 -0.016028522 -0.05798773 0.05347136
0.003709348 0.034739204 -0.00616689 0.06485074 -0.038551323 0.020905806 0.06396646 -0.0054868264

arith.constant10 f4 [1, 32]
00000000: 7df4 dfbe b312 80be d819 483e 2ef8 3dbe
00000010: e797 5cbe ac22 da3e 798d 94be f403 78be
00000020: c4ae c5be 0be0 7abe 6154 3dbe b13b 04bf
00000030: 11d4 abbe b110 a93e 6958 72be 0f3d 163e
00000040: 26d2 d43d 1d19 cf3d 64b6 d9bd 5296 fbbe
00000050: 2d11 643e 44d4 b83e 85f4 ac3e d8d2 98be
00000060: 10cd e8be 8747 c03e 585a a93e da89 c53e
00000070: 489d 92be e8e0 c03e b273 28be 4233 183e
-0.43741217 -0.25014266 0.19541109 -0.18551704 -0.21542321 0.42604578 -0.29014185 -0.24220258
-0.38609898 -0.24499528 -0.18489219 -0.5165358 -0.3356023 0.33020547 -0.23666538 0.1467173
0.10391645 0.10112212 -0.106304914 -0.49138123 0.22272177 0.36099446 0.33780304 -0.2984836
-0.4546895 0.3755457 0.3307674 0.38581735 -0.2863562 0.3767159 -0.16450384 0.14863303

arith.constant11 f4 [64]
00000000: 8977 25bd 0000 0000 1f11 d4bc 04e6 8dbc
00000010: e9d5 0fbc 5233 35bb 0eb9 7cbc a5bb 02bd
00000020: fbec 3c3c 57d0 ddbb c243 8cbc c4fe 07bd
00000030: 8aaf b8bb a88c d9bc a801 7cbc 61e4 773c
00000040: c112 c03c 0000 0000 0000 0000 8348 55bc
00000050: d082 c2bc 5996 803c 3212 afbc b016 2a3b
00000060: 82a1 d8bb 7291 e03c b703 b0bc 5f62 1ebc
00000070: e644 993c b3b5 7c3c 4680 8f3c ca68 d4bc
00000080: 0000 0000 0000 0000 4ab8 01bc 4a46 1cbc
00000090: dae9 36bc 0219 7d3b 0000 0000 7fe3 85bc
000000a0: 8e5b 18bc a9d5 06bc eb17 3fbc 0000 0000
000000b0: e8e6 8cb9 0000 0000 f3b6 b5bc b8b4 263b
000000c0: 0220 e7bc b56f edba fdcb ad3c 3507 b3bc
000000d0: 0000 0000 d979 2d3d 2221 a63a 7b3d 9b3c
000000e0: 7a63 d83b 73f9 c53c b59b ab3c 871e a83a
000000f0: d335 83bc 0d74 87bc 077c 273d 81ba 023d
-0.0403972 0.0 -0.02588707 -0.017321594 -0.0087790275 -0.0027648997 -0.01542498 -0.031917233
0.01153111 -0.006769221 -0.017122153 -0.033201948 -0.0056361603 -0.026556328 -0.015381254 0.015130133
0.023446443 0.0 0.0 -0.013017776 -0.023744017 0.015696691 -0.02137098 0.0025953464
-0.00661105 0.027413104 -0.021486146 -0.009667008 0.018709611 0.01542418 0.01751722 -0.025928874
0.0 0.0 -0.007917473 -0.009538243 -0.011164153 0.0038619642 0.0 -0.01634383
-0.009299172 -0.0082296515 -0.011663417 0.0 -0.0002687492 0.0 -0.022181964 0.0025437307
-0.028213505 -0.0018114956 0.021215433 -0.021854023 0.0 0.04235253 0.0012674669 0.018950215
0.0066036554 0.024166798 0.02094827 0.0012826481 -0.016016876 -0.01653483 0.040889766 0.031916145

tfl.pseudo_qconst i1 [64, 1, 3, 24]
00000000: 3334 212a b315 22bb 0416 0660 3205 fcf5
00000010: 09bc 03bd 06c7 a3d5 291c 1af8 d542 413f
00000020: 2a9b 1f7f 1f08 ca45 55ef f6c8 02c1 ddaa
00000030: 99b2 3931 f7e6 ebff 3016 3345 4971 021a
00000040: 2c4a fa37 320c fde9 ba4b dc89 0651 2eea
00000050: a437 fd15 815f fb17 bfaa 33f2 d49b 9848
00000060: d04e a3cd 8855 270a 021b 3c23 bf83 8bd7
00000070: 178e 248b 6867 dabf a8cc b957 e522 c33d
00000080: 9301 4def 6009 200b 6c5c 88a0 e503 8ede
00000090: 4e85 9fcd 03cb 1cf4 4f81 e20e 3218 1a21
000000a0: 8a57 e80b cf4e b03a eed8 ad32 ef9c efec
000000b0: 1dc1 2e8e 93b8 21ec 3957 c828 6133 bbdc
000000c0: d937 4cd7 dd91 9165 3ff3 2202 55fc b0fd
000000d0: 020e 5930 06da 9001 2d4f efd2 1a3f bdba
000000e0: adf9 1cb6 a838 17ce e33d 503d 2fd8 b61c
000000f0: 3df9 e6e0 aed8 38b7 45b6 de39 3c56 d9cf
51 52 33 42 -77 21 34 -69
4 22 6 96 50 5 -4 -11
9 -68 3 -67 6 -57 -93 -43
41 28 26 -8 -43 66 65 63
42 -101 31 127 31 8 -54 69
85 -17 -10 -56 2 -63 -35 -86
-103 -78 57 49 -9 -26 -21 -1
48 22 51 69 73 113 2 26
44 74 -6 55 50 12 -3 -23
-70 75 -36 -119 6 81 46 -22
-92 55 -3 21 -127 95 -5 23
-65 -86 51 -14 -44 -101 -104 72
-48 78 -93 -51 -120 85 39 10
2 27 60 35 -65 -125 -117 -41
23 -114 36 -117 104 103 -38 -65
-88 -52 -71 87 -27 34 -61 61
-109 1 77 -17 96 9 32 11
108 92 -120 -96 -27 3 -114 -34
78 -123 -97 -51 3 -53 28 -12
79 -127 -30 14 50 24 26 33
-118 87 -24 11 -49 78 -80 58
-18 -40 -83 50 -17 -100 -17 -20
29 -63 46 -114 -109 -72 33 -20
57 87 -56 40 97 51 -69 -36
-39 55 76 -41 -35 -111 -111 101
63 -13 34 2 85 -4 -80 -3
2 14 89 48 6 -38 -112 1
45 79 -17 -46 26 63 -67 -70
-83 -7 28 -74 -88 56 23 -50
-29 61 80 61 47 -40 -74 28
61 -7 -26 -32 -82 -40 56 -73
69 -74 -34 57 60 86 -39 -49

tfl.pseudo_qconst1 i1 [32, 50]
00000000: 8887 4b62 fb46 e97e 0353 565c fa03 8eef
00000010: 9e19 17d5 1f06 4f60 2b7f f991 6a0a 4b0c
00000020: c540 0d5d 1595 7e1e 0f26 07ee b3f7 17fa
00000030: ac44 e295 de6e fe22 304b 1333 511d bca4
00000040: ec48 e285 35ae 1c47 1912 6a59 37b7 614a
00000050: dcd4 ee2e 1132 86bb 6cf0 e17f acc4 3c1b
00000060: fea8 a02a f27f b11c 241d 11c8 338c 24b8
00000070: 03d3 192e e8f7 370e d3c9 f3ba f587 3727
00000080: a804 b630 1c05 37cb 430b 32d9 d817 5ae0
00000090: 3c0a d90f 07f0 e7c9 5f46 ec18 1176 0664
000000a0: edde 3d81 e9ea b203 1819 fae7 3f0e 43ea
000000b0: 9df8 6b1a fe9f 2a62 9531 9ec5 244d 3af4
000000c0: 07c6 a5ed cd13 1c31 c58f f8e2 e6ed 0e30
000000d0: 5aff fa68 dd81 9706 ed9b 031e 8947 606a
000000e0: 7647 991e 5348 43da 243d 0f63 ed8e 6f5c
000000f0: db57 e2c0 32c5 10da dc42 2f7f e1c7 270e
-120 -121 75 98 -5 70 -23 126
3 83 86 92 -6 3 -114 -17
-98 25 23 -43 31 6 79 96
43 127 -7 -111 106 10 75 12
-59 64 13 93 21 -107 126 30
15 38 7 -18 -77 -9 23 -6
-84 68 -30 -107 -34 110 -2 34
48 75 19 51 81 29 -68 -92
-20 72 -30 -123 53 -82 28 71
25 18 106 89 55 -73 97 74
-36 -44 -18 46 17 50 -122 -69
108 -16 -31 127 -84 -60 60 27
-2 -88 -96 42 -14 127 -79 28
36 29 17 -56 51 -116 36 -72
3 -45 25 46 -24 -9 55 14
-45 -55 -13 -70 -11 -121 55 39
-88 4 -74 48 28 5 55 -53
67 11 50 -39 -40 23 90 -32
60 10 -39 15 7 -16 -25 -55
95 70 -20 24 17 118 6 100
-19 -34 61 -127 -23 -22 -78 3
24 25 -6 -25 63 14 67 -22
-99 -8 107 26 -2 -97 42 98
-107 49 -98 -59 36 77 58 -12
7 -58 -91 -19 -51 19 28 49
-59 -113 -8 -30 -26 -19 14 48
90 -1 -6 104 -35 -127 -105 6
-19 -101 3 30 -119 71 96 106
118 71 -103 30 83 72 67 -38
36 61 15 99 -19 -114 111 92
-37 87 -30 -64 50 -59 16 -38
-36 66 47 127 -31 -57 39 14

tfl.pseudo_qconst2 i1 [200, 64]
00000000: e610 0b54 12ec 1bc6 3003 7f41 2b2a 2e53
00000010: 31b5 b3d2 3e7c 1639 ed49 e7b8 011b 086e
00000020: 4ec0 62e9 085f 2df4 55d2 1042 5d3a 71f8
00000030: 4e0b 4bde bf56 fe2e f277 5f18 1535 0946
00000040: 7fe0 c2e8 347d 5ce6 0cd2 6036 e33f d7da
00000050: 0b07 1c21 1f57 3878 4a02 dacf 1df9 7c65
00000060: 03e9 6646 d2f1 dedf c12c ee46 6837 55f1
00000070: 06d8 f0fb c62f f063 7a48 0678 2f2d 3e69
00000080: 62e8 c6e5 1e06 be34 2bc5 5951 2f28 e139
00000090: e7d2 cf39 ed26 e729 b214 39a8 fa43 2ae3
000000a0: c44e 3821 2681 a03f ccf5 1819 094c 9ed1
000000b0: 0440 bfe7 b446 c5d7 4ba1 3f17 535d d118
000000c0: a45b 9477 ba67 df09 0743 d0b4 a5dd 3ad5
000000d0: e857 2b33 f2f5 3006 f644 2ee1 38e2 452c
000000e0: c7df 5aa5 3ad0 1b12 4e1b b26e e8ab 7f1e
000000f0: 448e ec59 ac76 a0c5 5548 ddeb 70ea 1a0e
-26 16 11 84 18 -20 27 -58
48 3 127 65 43 42 46 83
49 -75 -77 -46 62 124 22 57
-19 73 -25 -72 1 27 8 110
78 -64 98 -23 8 95 45 -12
85 -46 16 66 93 58 113 -8
78 11 75 -34 -65 86 -2 46
-14 119 95 24 21 53 9 70
127 -32 -62 -24 52 125 92 -26
12 -46 96 54 -29 63 -41 -38
11 7 28 33 31 87 56 120
74 2 -38 -49 29 -7 124 101
3 -23 102 70 -46 -15 -34 -33
-63 44 -18 70 104 55 85 -15
6 -40 -16 -5 -58 47 -16 99
122 72 6 120 47 45 62 105
98 -24 -58 -27 30 6 -66 52
43 -59 89 81 47 40 -31 57
-25 -46 -49 57 -19 38 -25 41
-78 20 57 -88 -6 67 42 -29
-60 78 56 33 38 -127 -96 63
-52 -11 24 25 9 76 -98 -47
4 64 -65 -25 -76 70 -59 -41
75 -95 63 23 83 93 -47 24
-92 91 -108 119 -70 103 -33 9
7 67 -48 -76 -91 -35 58 -43
-24 87 43 51 -14 -11 48 6
-10 68 46 -31 56 -30 69 44
-57 -33 90 -91 58 -48 27 18
78 27 -78 110 -24 -85 127 30
68 -114 -20 89 -84 118 -96 -59
85 72 -35 -21 112 -22 26 14

tfl.pseudo_qconst3 i1 [200, 50]
00000000: 0102 3612 f734 03c4 1c20 321d 7f05 f135
00000010: c529 4339 e8e4 0af5 e71a 38e7 0684 9fd6
00000020: f024 e664 f015 2a06 05dc 4533 34e6 43cb
00000030: f222 60f9 1926 2313 8d14 60e6 0457 7fc0
00000040: aa46 2aa9 34d8 40f9 2d5e dd06 cbc5 13ab
00000050: dd94 1e5e 0045 ce16 d028 1d07 4506 01f1
00000060: 588a e403 1306 8dd9 182c f301 f114 0b30
00000070: 7f2c df48 defb d446 5fec 0efa 0a22 5b23
00000080: f1f2 3a34 0a43 04a8 0405 cdf8 daed d8f0
00000090: f8c6 ea0d 46e8 620c d1eb 3858 db25 06bb
000000a0: fd09 1406 daeb fd50 0400 8d18 5d2e e949
000000b0: 06f6 4342 16c5 0511 ff55 1ef1 3a46 398f
000000c0: 0025 bd7f 09f8 fe3a 1eb6 aee2 d205 e263
000000d0: 81ef 2ff6 b903 e044 f50c dae6 ff42 29c6
000000e0: fd27 46eb 446a 0bfa 39d0 4195 f8f7 de8c
000000f0: 25c0 0362 b835 ab1c 0dd4 eabd 0b2a 4d02
1 2 54 18 -9 52 3 -60
28 32 50 29 127 5 -15 53
-59 41 67 57 -24 -28 10 -11
-25 26 56 -25 6 -124 -97 -42
-16 36 -26 100 -16 21 42 6
5 -36 69 51 52 -26 67 -53
-14 34 96 -7 25 38 35 19
-115 20 96 -26 4 87 127 -64
-86 70 42 -87 52 -40 64 -7
45 94 -35 6 -53 -59 19 -85
-35 -108 30 94 0 69 -50 22
-48 40 29 7 69 6 1 -15
88 -118 -28 3 19 6 -115 -39
24 44 -13 1 -15 20 11 48
127 44 -33 72 -34 -5 -44 70
95 -20 14 -6 10 34 91 35
-15 -14 58 52 10 67 4 -88
4 5 -51 -8 -38 -19 -40 -16
-8 -58 -22 13 70 -24 98 12
-47 -21 56 88 -37 37 6 -69
-3 9 20 6 -38 -21 -3 80
4 0 -115 24 93 46 -23 73
6 -10 67 66 22 -59 5 17
-1 85 30 -15 58 70 57 -113
0 37 -67 127 9 -8 -2 58
30 -74 -82 -30 -46 5 -30 99
-127 -17 47 -10 -71 3 -32 68
-11 12 -38 -26 -1 66 41 -58
-3 39 70 -21 68 106 11 -6
57 -48 65 -107 -8 -9 -34 -116
37 -64 3 98 -72 53 -85 28
13 -44 -22 -67 11 42 77 2
